…
_height': 240, 'image_width': 320, 'image_tensor_height': 256, 'image_tensor_width': 192, 'patch_number': 192, 'patch_size': 16, 'jump': 1, 'joint_number': 15, 'real_job': False, 'normalized': True, 'default': False, 'min_norm': -1}
[2024-06-11 13:10:58,146] [INFO] [real_accelerator.py:191:get_accelerator] Setting ds_accelerator to cuda (auto detect)
torch.Size([40, 240, 320, 3])
The passed width and height are  320 240
Video saved as results/2normalized_pull_ups
Use checkpoint: False
Checkpoint number: 0
HeatMapVideoMambaPose(
  (mamba): VisionMamba(
    (patch_embed): PatchEmbed(
      (proj): Conv3d(3, 192, kernel_size=(1, 16, 16), stride=(1, 16, 16))
    )
    (pos_drop): Dropout(p=0.0, inplace=False)
    (head_drop): Identity()
    (head): Linear(in_features=192, out_features=1000, bias=True)
    (drop_path): DropPath()
    (layers): ModuleList(
      (0-1): 2 x Block(
        (mixer): Mamba(
          (in_proj): Linear(in_features=192, out_features=768, bias=False)
          (conv1d): Conv1d(384, 384, kernel_size=(4,), stride=(1,), padding=(3,), groups=384)
          (act): SiLU()
          (x_proj): Linear(in_features=384, out_features=44, bias=False)
          (dt_proj): Linear(in_features=12, out_features=384, bias=True)
          (conv1d_b): Conv1d(384, 384, kernel_size=(4,), stride=(1,), padding=(3,), groups=384)
          (x_proj_b): Linear(in_features=384, out_features=44, bias=False)
          (dt_proj_b): Linear(in_features=12, out_features=384, bias=True)
          (out_proj): Linear(in_features=384, out_features=192, bias=False)
        )
        (norm): RMSNorm()
        (drop_path): Identity()
      )
      (2-11): 10 x Block(
        (mixer): Mamba(
          (in_proj): Linear(in_features=192, out_features=768, bias=False)
          (conv1d): Conv1d(384, 384, kernel_size=(4,), stride=(1,), padding=(3,), groups=384)
          (act): SiLU()
          (x_proj): Linear(in_features=384, out_features=44, bias=False)
          (dt_proj): Linear(in_features=12, out_features=384, bias=True)
          (conv1d_b): Conv1d(384, 384, kernel_size=(4,), stride=(1,), padding=(3,), groups=384)
          (x_proj_b): Linear(in_features=384, out_features=44, bias=False)
          (dt_proj_b): Linear(in_features=12, out_features=384, bias=True)
          (out_proj): Linear(in_features=384, out_features=192, bias=False)
        )
        (norm): RMSNorm()
        (drop_path): DropPath()
      )
    )
    (norm_f): RMSNorm()
  )
  (deconv): Deconv(
    (conv_layers): Sequential(
      (0): Conv2d(256, 256, kernel_size=(1, 1), stride=(1, 1))
      (1): BatchNorm2d(256, eps=1e-05, momentum=0.1, affine=True, track_running_stats=True)
      (2): ReLU(inplace=True)
      (3): Conv2d(256, 256, kernel_size=(1, 1), stride=(1, 1))
      (4): BatchNorm2d(256, eps=1e-05, momentum=0.1, affine=True, track_running_stats=True)
      (5): ReLU(inplace=True)
      (6): Conv2d(256, 15, kernel_size=(1, 1), stride=(1, 1))
    )
    (deconv_layers): Sequential(
      (0): ConvTranspose2d(192, 256, kernel_size=(4, 4), stride=(2, 2), padding=(1, 1), bias=False)
      (1): BatchNorm2d(256, eps=1e-05, momentum=0.1, affine=True, track_running_stats=True)
      (2): ReLU(inplace=True)
      (3): ConvTranspose2d(256, 256, kernel_size=(4, 4), stride=(2, 2), padding=(1, 1), bias=False)
      (4): BatchNorm2d(256, eps=1e-05, momentum=0.1, affine=True, track_running_stats=True)
      (5): ReLU(inplace=True)
    )
  )
  (joints): JointOutput(
    (regressor): Sequential(
      (0): Linear(in_features=3072, out_features=512, bias=True)
      (1): ReLU()
      (2): Linear(in_features=512, out_features=2, bias=True)
      (3): Tanh()
    )
  )
)
Are the last two outputs the same?:  tensor([[False, False],
        [False, False],
        [False, False],
        [False, False],
        [False, False],
        [False, False],
        [False, False],
        [False, False],
        [False, False],
        [False, False],
        [False, False],
        [False, False],
        [False, False],
…
